cifar.pth (torch, 588965 bytes, 10 tensors)

weight f4 [32, 3, 5, 5]
0.07448352 0.050395306 0.07544352 0.09147358 -0.21084149 0.10814399 -0.07601293 0.16717131
0.09535526 -0.17001991 0.022892822 -0.22596936 0.11487661 -0.004202999 -0.15983596 0.13759476
-0.2232787 -0.0038236487 0.21352263 -0.26583818 0.22009721 0.02752966 -0.02982815 0.22696929
-0.041156475 -0.091219455 -0.050989214 0.109065436 -0.00017418545 -0.18651034 -0.057944044 -0.0882708
0.26173437 0.1690024 -0.14024374 0.1160652 -0.15878333 0.0063346345 0.13254945 -0.032732587
0.031737085 -0.15818103 0.057241865 0.0010560913 -0.23324353 0.2458844 -0.060563337 -0.0124349855
0.18437898 -0.039855897 -0.06149541 -0.07119772 0.12919769 -0.0829965 -0.21695982 -0.046734072
-0.19955312 0.089947596 0.14421691 -0.24617377 0.0022060715 -0.29857132 0.032714825 0.10222416
-0.25334355 0.19042392 -0.2912396 0.01626754 0.14786465 -0.1288991 0.17593044 -0.120522745
-0.0325996 0.22860399 0.03260492 -0.10931156 -0.23135674 -0.06500059 0.06666022 -0.08173404
-0.15309887 0.06301182 0.14138381 -0.046831418 -0.053000417 0.013209064 0.16701412 0.023265643
-0.09240513 -0.15700443 0.17152089 0.08976707 -0.0026551364 0.019519752 -0.09164506 0.06255878
-0.13657077 -0.049232177 -0.034124974 0.08859145 0.0235069 -0.0826701 0.13822691 0.067870826
-0.16056935 0.010643837 0.07929519 0.1781852 0.014707797 0.056336407 0.020690313 0.18746257
0.008862892 -0.03079457 -0.026036762 0.014540121 0.14470422 -0.08085143 0.066778116 0.06496986
0.100877434 -0.1663841 -0.06351956 0.055888996 -0.076785065 0.05546703 -0.1441511 -0.009481905
0.040405307 -0.05452369 0.0445631 0.06836271 0.099635154 -0.12779582 -0.09014823 -0.063160315
0.11966617 -0.092959285 0.0426303 0.04419455 0.07514498 0.043443326 -0.051467497 -0.13955213
0.05058116 0.11718544 -0.06599549 -0.11351578 0.09134071 -0.10716888 -0.0067413435 0.04968036
0.03429867 0.025802214 0.06641613 -0.08934607 -0.043802932 -0.024526188 -0.08720752 0.04867353
0.1712133 0.11082407 0.0035536487 0.046662115 -0.10551218 0.08525025 0.21662621 0.113094985
-0.0014661123 0.13269186 -0.11636182 -0.06604332 0.03212467 -0.05866856 -0.1266195 0.08225902
0.12108171 -0.0045608436 0.1956106 0.14117377 -0.046984337 -0.104458325 -0.19170235 -0.2084555
-0.16124871 -0.06710582 -0.0019360317 0.029429855 -0.09081853 -0.22883572 -0.030623132 0.1650637
0.085141204 0.16566579 0.13493693 -0.029599687 -0.103013575 -0.083009556 0.003643262 -0.0013643402
-0.091490805 -0.051941473 0.07012574 0.18681616 0.19651756 -0.10371693 -0.07411562 -0.17674349
-0.15308467 0.04392478 0.035590418 0.028013667 -0.12282896 -0.13786495 -0.22313048 0.10628923
-0.045388803 0.099636845 0.12314149 0.17466213 -0.10885786 -0.1751905 -0.0016011934 0.07522125
0.090127654 0.06820489 -0.15267949 -0.09174957 0.023723558 -0.08942575 -0.17252727 -0.11567531
-0.16452084 0.041446157 0.1366815 -0.15391797 0.027902221 0.015374283 0.19983082 0.03155716
-0.14539188 -0.08246292 0.117174536 0.029091077 -0.047204953 0.044793446 0.028440783 0.08117525
0.057394743 -0.10167582 0.17497651 -0.15226582 -0.18800628 0.021150593 -0.09968003 -0.13700713
00000000: d18a 983d 4f6b 4e3d 2282 9a3d 8056 bb3d
00000010: d5e6 57be 997a dd3d abac 9bbd f52e 2b3e
00000020: 9e49 c33d b319 2ebe ba89 bb3c 8364 67be
00000030: 6e44 eb3d 50b9 89bb 0aac 23be a4e5 0c3e
00000040: 2ca3 64be 2e96 7abb ada5 5a3e f11b 88be
00000050: 2a61 613e e285 e13c 2a5a f4bc a36a 683e
00000060: b193 28bd 44d1 babd 11da 50bd b35d df3d
00000070: 8da5 36b9 91fc 3ebe bc56 6dbd 52c7 b4bd
00000080: 0c02 863e f70e 2d3e 0e9c 0fbe 97b3 ed3d
00000090: 1998 22be c492 cf3b 0bbb 073e 9b12 06bd
000000a0: bffe 013d 35fa 21be 7276 6a3d 8b6c 8a3a
000000b0: 64d7 6ebe 1fc9 7b3e 4311 78bd 1cbc 4bbc
000000c0: d8cd 3c3e f03f 23bd 9ce2 7bbd 1cd0 91bd
000000d0: 664c 043e 12fa a9bd b72a 5ebe 3a6c 3fbd
000000e0: a757 4cbe 7236 b83d 99ad 133e fa14 7cbe
000000f0: bd93 103b 57de 98be fbff 053d e75a d13d
00000100: 3fb6 81be 7dfe 423e 5b1d 95be 8143 853c
00000110: d569 173e 20fe 03be 1c27 343e a1d4 f6bd
00000120: 2887 05bd 2a17 6a3e bd8c 053d bdde dfbd
00000130: c8e8 6cbe 081f 85bd 2785 883d 2d64 a7bd
00000140: f3c5 1cbe 570c 813d ebc6 103e 4dd2 3fbd
00000150: f716 59bd d46a 583c c005 2b3e 9797 be3c
00000160: e73e bdbd c5c5 20be 2ca3 2f3e ccd7 b73d
00000170: cc01 2ebb e3e7 9f3c 68b0 bbbd d11e 803d
00000180: 35d9 0bbe aea7 49bd a1c6 0bbd 6f6f b53d
00000190: 8b91 c03c f14e a9bd 5b8b 0d3e dcff 8a3d
000001a0: 4b6c 24be 7d63 2e3c 8465 a23d 2e76 363e
000001b0: f9f8 703c 01c1 663d bb7e a93c 30f6 3f3e
000001c0: aa35 113c e544 fcbc 0c4b d5bc b039 6e3c
000001d0: 582d 143e 6f95 a5bd f7c2 883d eb0e 853d
000001e0: d498 ce3d 9860 2abe 8b16 82bd dceb 643d
000001f0: 7d41 9dbd 6531 633d 599c 13be fe59 1bbc
00000200: 0980 253d 3c54 5fbd cc87 363d c001 8c3d
00000210: 840d cc3d e8dc 02be a39f b8bd 325a 81bd
00000220: 8913 f53d 7061 bebd 1c9d 2e3d 5805 353d
00000230: 9ce5 993d a1f1 313d 95cf 52bd c1e6 0ebe
00000240: 312e 4f3d ecfe ef3d a528 87bd f67a e8bd
00000250: d710 bb3d 5c7b dbbd 7de6 dcbb a27d 4b3d
00000260: c37c 0c3d 2a5f d33c 2e05 883d 13fb b6bd
00000270: b46a 33bd 25eb c8bc db99 b2bd e55d 473d
00000280: 8a52 2f3e bbf7 e23d 55e4 683b c620 3f3d
00000290: c516 d8bd af97 ae3d 43d3 5d3e 589e e73d
000002a0: 912a c0ba 60e0 073e 1b4f eebd b841 87bd
000002b0: 2895 033d 724e 70bd 8ba8 01be 6b77 a83d
000002c0: b0f9 f73d 2173 95bb 254e 483e db8f 103e
000002d0: a672 40bd 3fee d5bd 9f4d 44be 5c75 55be
000002e0: 621e 25be c76e 89bd 72c2 fdba e116 f13c
000002f0: 11ff b9bd e953 6abe 5ddd fabc 7506 293e
00000300: 835e ae3d 4ba4 293e e82c 0a3e 0b7b f2bc
00000310: c8f8 d2bd ea00 aabd cbc3 6e3b a9d3 b2ba
00000320: 885f bbbd 95c0 54bd 159e 8f3d bc4c 3f3e
00000330: e63b 493e 8b69 d4bd eec9 97bd 3ffc 34be
00000340: 3ac2 1cbe 78ea 333d 42c7 113d eb7c e53c
00000350: c08d fbbd 782c 0dbe 517c 64be 2bae d93d
00000360: 9ce9 39bd 670e cc3d 9b31 fc3d a1da 323e
00000370: dff0 debd 2365 33be 23df d1ba 990d 9a3d
00000380: d994 b83d 01af 8b3d 0358 1cbe 33e7 bbbd
00000390: e857 c23c d924 b7bd fdaa 30be 2de7 ecbd
000003a0: 2778 28be 72c3 293d 3cf6 0b3e ac9c 1dbe
000003b0: 3393 e43c 6be4 7b3c 73a0 4c3e 1542 013d
000003c0: 9ce1 14be 52e2 a8bd 34f9 ef3d 6950 ee3c
000003d0: fb59 41bd 5579 373d a5fc e83c 363f a63d
000003e0: c016 6b3d 6a3b d0bd 0b2d 333e 92eb 1bbe
000003f0: b884 40be 0244 ad3c 0b25 ccbd 994b 0cbe

bias f4 [32]
0.13641371 -0.0077549675 -0.108970284 -0.15951551 0.12360202 0.37383208 -0.13144949 -0.104224525
0.0057415995 -0.07048112 -0.18796766 0.043769006 0.082005106 -0.4845441 0.36113837 -0.02426065
0.019046476 0.1960092 -0.17928025 -0.1300863 -0.2619637 0.12701939 -0.24264863 -0.044634443
0.06481544 -0.113294676 -0.20680293 -0.13048916 -0.36112326 0.05038297 0.10230117 -0.18565704
00000000: 09b0 0b3e 621d febb d02b dfbd 0958 23be
00000010: 0e23 fd3d eb66 bf3e b29a 06be ab73 d5bd
00000020: 0724 bc3b 6858 90bd 987a 40be 2147 333d
00000030: 4bf2 a73d 2a16 f8be 21e7 b83e 45be c6bc
00000040: 5b07 9c3c a3b6 483e 3e95 37be 5835 05be
00000050: 1b20 86be 5f11 023e e278 78be 9bd2 36bd
00000060: f5bd 843d 0a07 e8bd 26c4 53be f39e 05be
00000070: 26e5 b8be 605e 4e3d 4783 d13d e11c 3ebe

weight f4 [32, 32, 5, 5]
0.004128931 -0.005545407 0.08384121 0.034163915 0.07660913 0.062493738 -0.016312063 0.1381047
-0.036499843 0.090835325 0.06668699 -0.06429586 0.09598757 -0.0077103027 0.035737064 -0.0076423944
-0.041184127 0.012701977 -0.0071678148 0.01972693 -0.025637124 -0.023799729 0.009598267 -0.03454383
-0.009297674 0.034041673 0.017307982 -0.02103578 0.030783579 -0.040867835 -0.0013419597 -0.0318888
-0.02045352 0.013110303 -0.036433175 0.0057579717 -0.05362047 0.026869766 0.031420924 -0.006961072
0.018899338 0.023040002 0.02583142 -0.007610918 -0.00095141615 -0.028126067 0.018342217 0.0035244164
0.025713412 -0.01784953 0.0035660125 -0.007321626 0.021414023 -0.0063086487 0.011283638 0.0087341545
-0.0024322392 0.0052411533 -0.025084488 -0.03294279 0.010056548 0.024679001 0.009905023 -0.0075175315
-0.0013880172 -0.0023798272 -0.027848644 -0.034178812 0.010267601 0.034880858 0.0064302357 0.004603958
0.0033215045 -0.013036943 0.037734672 0.03876768 -0.030430922 0.0943353 -0.10838735 0.07898522
0.030904306 0.026025072 0.114558406 -0.12584464 0.05582006 0.0028167902 -0.02155906 -0.0066595688
-0.09926096 0.09292115 -0.04287017 -0.006231938 0.005832329 -0.02435334 0.012845034 0.0043250704
0.0199432 -0.0071533713 0.017028527 0.0024525994 0.013507594 -0.0136317685 0.04463391 -0.00026058828
0.12664434 0.0012654818 -0.009800281 0.0922107 -0.039355244 0.11635531 0.04439716 0.008928462
0.03970363 -0.028769273 0.15868394 0.025400737 -0.02499687 -0.02735962 -0.04383409 0.05381226
-0.051039025 -0.019270586 -0.0007271001 -0.010088295 0.013520375 0.028255485 0.02954213 -0.032245144
-0.018663801 0.020868458 0.023659155 0.019639285 -0.03376642 -0.051515117 0.0026762448 0.016014338
-0.018735083 -0.057968095 -0.05349304 0.02154188 -0.023152368 -0.007735659 -0.07517798 -0.031165749
-0.019640189 0.024873264 0.027283724 -0.01835431 -0.012598554 -0.051067814 0.011782234 0.0104384925
0.039573666 0.027993465 -0.02067991 -0.018524209 0.03234016 -0.025216116 0.0027997522 -0.030077342
0.004369315 -0.01629425 0.01886363 0.009791836 -0.060156323 0.013577526 0.0005517042 -0.0040710247
0.03384952 -0.019183064 0.02302808 -0.005777676 0.0072128642 -0.014435177 0.0021469644 -0.03596126
0.044903215 -0.066031255 0.04631398 -0.0904175 -0.050134353 0.025604224 -0.05433375 0.077042714
-0.06923425 -0.017308291 0.04903143 -0.017138815 0.07568319 -0.020524882 -0.020886377 0.041538317
0.027381979 0.048891276 -0.008628527 -0.040348426 0.004609919 0.024136746 0.030403381 0.020817488
-0.06697838 0.0318331 0.029813403 -0.07744492 0.11972969 -0.0067741093 0.029820658 -0.0029785128
-0.08175418 0.107985884 -0.020835228 0.014888811 0.016177239 0.016641371 0.035409253 -0.027162446
0.027302109 -0.05561945 0.0721706 0.02867511 -0.04747049 -0.0032000768 -0.0016743287 0.023194177
0.0054409327 0.00823998 0.08983153 -0.008391577 0.2401647 -0.08289179 0.034051046 0.077760704
-0.088028826 0.27003703 -0.1387005 0.048160985 0.016138744 -0.04357527 0.1568634 -0.07289155
0.007037724 0.02958833 -0.016629562 0.061034806 -0.029181426 -0.034177426 0.023662632 -0.020158699
0.0075460398 0.02714269 0.037438784 -0.07449986 0.07148059 0.014893312 0.0581588 0.04968199
00000000: fc4b 873b 3fb6 b5bb f1b4 ab3d 76ef 0b3d
00000010: 3fe5 9c3d 6ff9 7f3d e0a0 85bc 526b 0d3e
00000020: dc80 15bd df07 ba3d 3093 883d 8cad 83bd
00000030: 2295 c43d b5a6 fcbb 0761 123d 0d6d fabb
00000040: b0b0 28bd f41b 503c fddf eabb 5f9a a13c
00000050: f204 d2bc a6f7 c2bc 0d42 1d3c d57d 0dbd
00000060: 4555 18bc 486f 0b3d 78c9 8d3c 3a53 acbc
00000070: d82d fc3c 0865 27bd b2e4 afba d59d 02bd
00000080: 248e a7bc 99cc 563c f43a 15bd 5ead bc3b
00000090: 23a1 5bbd fc1d dc3c 3ab3 003d b419 e4bb
000000a0: c9d2 9a3c 63be bc3c 6a9c d33c 0265 f9bb
000000b0: 7568 79ba a368 e6bc 6b42 963c e5f9 663b
000000c0: efa4 d23c 2d39 92bc c3b3 693b 40ea efbb
000000d0: 766c af3c c8b8 cebb 02df 383c b319 0f3c
000000e0: 3466 1fbb fbbd ab3b fc7d cdbc 05ef 06bd
000000f0: 38c4 243c 9e2b ca3c ad48 223c a055 f6bb
00000100: 21ee b5ba e0f6 1bbb d722 e4bc 15ff 0bbd
00000110: 7139 283c 3bdf 0e3d bab4 d23b cddc 963b
00000120: 99ad 593b e798 55bc ac8f 1a3d dcca 1e3d
00000130: 454a f9bc de32 c13d 30fa ddbd 01c3 a13d
00000140: 072b fd3c 8832 d53c 999d ea3d 6bdd 00be
00000150: 93a3 643d e699 383b a09c b0bc 8338 dabb
00000160: 5549 cbbd 724d be3d a298 2fbd 4935 ccbb
00000170: 1f1d bf3b a880 c7bc fa73 523c 52b9 8d3b
00000180: ec5f a33c d466 eabb 697f 8b3c cabb 203b
00000190: f54e 5d3c c857 5fbc 0cd2 363d 919f 88b9
000001a0: 0eaf 013e 86de a53a 5c91 20bc f7d8 bc3d
000001b0: f732 21bd b14b ee3d ccd9 353d af48 123c
000001c0: 46a0 223d 8aad ebbc 0b7e 223e 3515 d03c
000001d0: 3cc6 ccbc 4821 e0bc 608b 33bd 3f6a 5c3d
000001e0: 4c0e 51bd 59dd 9dbc dd9a 3eba 6049 25bc
000001f0: 9084 5d3c 0c78 e73c 5602 f23c 7c13 04bd
00000200: d4e4 98bc 54f4 aa3c d8d0 c13c 91e2 a03c
00000210: a84e 0abd 8401 53bd f063 2f3b 8030 833c
00000220: 517a 99bc f46f 6dbd 851b 5bbd 9978 b03c
00000230: 09aa bdbc 697b fdbb eaf6 99bd 504f ffbc
00000240: 76e4 a0bc 04c3 cb3c 1e82 df3c c75b 96bc
00000250: 2a6a 4ebc 7c2c 51bd 450a 413c 3606 2b3c
00000260: ff17 223d 8d52 e53c ea68 a9bc 15c0 97bc
00000270: 1e77 043d 0792 cebc 0c7c 373b c264 f6bc
00000280: 792c 8f3b 857b 85bc e687 9a3c f06d 203c
00000290: 7a66 76bd 4674 5e3c 3ea0 103a 3b66 85bb
000002a0: cba5 0a3d cd25 9dbc 62a5 bc3c a952 bdbb
000002b0: e459 ec3b 8581 6cbc 16b4 0c3b 1d4c 13bd
000002c0: 6fec 373d 653b 87bd bab3 3d3d cf2c b9bd
000002d0: ae59 4dbd f3bf d13c 118d 5ebd 92c8 9d3d
000002e0: b0ca 8dbd 1eca 8dbc 2ed5 483d b366 8cbc
000002f0: caff 9a3d cc23 a8bc e819 abbc 1524 2a3d
00000300: 2c50 e03c 3842 483d aa5e 0dbc 6444 25bd
00000310: ce0e 973b 6dba c53c 8310 f93c 7089 aa3c
00000320: f62b 89bd 6d63 023d 3d3b f43c 719b 9ebd
00000330: d734 f53d 59f9 ddbb 744a f43c 2733 43bb
00000340: bc6e a7bd b427 dd3d a4ae aabc 33f0 733c
00000350: 2186 843c 7c53 883c 4b09 113d c783 debc
00000360: aca8 df3c 38d1 63bd 2ece 933d 10e8 ea3c
00000370: 6b70 42bd 61b8 51bb 2675 dbba b701 be3c
00000380: da49 b23b fb00 073c 98f9 b73d d37c 09bc
00000390: bced 753e 2cc3 a9bd 1c79 0b3d 0141 9f3d
000003a0: 7548 b4bd 4b42 8a3e 8107 0ebe 7444 453d
000003b0: 6635 843c fb7b 32bd cda0 203e 2a48 95bd
000003c0: b59c e63b 3a63 f23c b83a 88bc a2ff 793d
000003d0: e30d efbc a1fd 0bbd 23d8 c13c db23 a5bc
000003e0: c544 f73b 595a de3c 6959 193d 6293 98bd
000003f0: 6a64 923d 1403 743c ec37 6e3d 587f 4b3d

bias f4 [32]
-0.12495409 -0.24548541 -0.045395415 -0.10124727 0.0782343 0.03194392 -0.019457469 0.014679071
-0.07771406 -0.056648806 -0.08855702 -0.14712928 -0.1441081 -0.04800501 -0.13499102 -0.035311658
-0.17357258 -0.050911993 -0.066459686 -0.18875359 -0.016378827 0.05102928 -0.09942904 -0.09784805
-0.020231696 -0.18388024 -0.19048181 -0.19510388 -0.061988566 -0.08068572 -0.05590185 -0.17234091
00000000: eee7 ffbd 8760 7bbe 8bf0 39bd bb5a cfbd
00000010: 4e39 a03d a1d7 023d 4565 9fbc 7c80 703c
00000020: 8d28 9fbd 9408 68bd 625d b5bd 0fa9 16be
00000030: 1391 13be e7a0 44bd 163b 0abe f5a2 10bd
00000040: 03bd 31be 1889 50bd 041c 88bd 9f48 41be
00000050: e42c 86bc 1404 513d 74a1 cbbd 8f64 c8bd
00000060: f1bc a5bc 1a4b 3cbe aa0d 43be 50c9 47be
00000070: b9e7 7dbd 8e3e a5bd 57f9 64bd 237a 30be

weight f4 [64, 32, 5, 5]
-0.06473095 -0.0020733834 -0.025189627 -0.029833686 -0.038360287 -0.034215562 -0.058688216 -0.024578677
-0.033488963 -0.0101220915 -0.0033448206 -0.017853964 -0.029128326 0.029118087 0.020277703 0.027422925
-0.05171909 0.008452502 -0.027811894 0.040762797 0.020145223 -0.043780714 -0.05587894 -0.046166353
0.027063143 -0.042824496 -0.0054429146 0.04042013 0.002300369 0.014203742 0.009153496 -0.03401313
-0.0025952156 0.010041912 -0.001445541 0.03046197 -0.031781733 -0.012105152 -0.013967563 -0.026556933
-0.009358667 -0.034088522 0.013755236 -0.013982818 -0.012328308 -0.057660546 -0.021034062 -0.015011121
-0.044119064 0.0036571254 -0.014445339 -0.020153215 -0.026804972 -0.04396865 -0.008454941 0.00090808177
0.018919589 -0.04007408 -0.0058519053 -0.022711713 0.0049038758 -0.0018202628 -0.014198485 0.03783369
0.0010691087 0.021697141 -0.06998618 -0.043169636 0.016033761 -0.00861935 0.021431673 0.0061278893
0.013287208 0.0044148364 -0.005283287 -0.028425148 -0.041977894 -0.008292909 -0.0036919499 -0.019845257
0.0695229 0.01836142 -0.021866716 -0.027384376 -0.0033290752 -0.06458669 -0.08424353 -0.043409314
0.038992796 -0.050551288 -0.030010678 -0.087348044 -0.08133484 0.038212106 -0.032049693 0.08975712
-0.0324235 -0.005203297 -0.00094013306 -0.026166877 0.03989344 -0.0498458 -0.066031285 -0.074912965
-0.003700482 0.08688738 -0.0016846184 0.0031077513 -0.025214914 -0.021164363 0.0341386 0.004668251
0.01958739 -0.003019263 -0.0031085582 -0.030109614 -0.08877199 -0.025259674 0.020604463 -0.0069575617
0.04179176 -0.075400144 0.021467242 -0.0034933041 0.010016834 0.052284863 -0.0017497563 -0.050789315
-0.021696476 -0.025115825 -0.041538585 -0.03851208 0.02822487 -0.018600587 -0.03686068 -0.035358284
-0.0009297767 -0.04953026 0.0131113725 0.012835755 -0.016993947 0.0028080884 -0.011987598 0.026221158
0.03991105 0.019527672 0.049242787 0.0069038053 0.026344147 0.05998092 -0.0153485965 -0.021934606
0.030464774 0.015506244 0.012263338 0.036247768 -0.014458192 0.0015642237 0.002427387 -0.012944647
-0.017753577 -0.037590474 0.03380389 0.014247106 -0.018341754 0.016168678 -0.012118845 -0.007527273
-0.024604106 0.02503189 0.02608552 -0.012397707 -0.00996751 -0.0022769012 0.03356929 -0.017174417
0.043954458 -0.02446264 0.035479575 0.0029994159 -0.05533436 -0.011331999 0.055366848 -0.034994088
-0.028639995 0.0032541393 -0.010543673 0.03317704 0.04225326 0.02996927 0.009035778 -0.018820826
-0.05689186 -0.030806875 -0.03243171 -0.000430811 -0.0009826513 -0.015140717 -0.034268584 0.0001336786
0.021344239 0.018188177 0.034250915 0.03717992 0.00022576978 -0.008501456 0.011810376 -0.011627259
-0.022045415 -0.011586268 0.013290385 -0.01363718 -0.029142372 -0.01668809 -0.022027021 0.019425208
-0.041925635 0.02131036 -0.0049902545 -0.06778739 0.04530197 0.02394318 0.016088435 -0.048901916
-0.03420098 0.13742456 -0.0110612875 -0.077428296 -0.009696123 0.03828625 0.08703894 0.029771695
0.0865878 -0.025545657 0.041451886 0.007269189 -0.03618431 0.071409084 0.032796532 0.012412513
-0.024163622 -0.03208199 -0.023443142 0.021201653 0.028815633 -0.04392929 0.0159071 0.07187497
0.0124986 0.0139401145 0.045039147 -0.020656435 0.03262898 -0.03384408 -0.06013143 -0.029645782
00000000: a991 84bd 9ae1 07bb 7a5a cebc c665 f4bc
00000010: ad1f 1dbd 9e25 0cbd 0e63 70bd 3959 c9bc
00000020: b92b 09bd 21d7 25bc c734 5bbb 7a42 92bc
00000030: 879e eebc 0e89 ee3c 6d1d a63c 0ba6 e03c
00000040: 66d7 53bd 5d7c 0a3c c5d5 e3bc e4f6 263d
00000050: 9807 a53c 6853 33bd 51e1 64bd ee18 3dbd
00000060: 86b3 dd3c bd68 2fbd 7a5a b2bb 948f 253d
00000070: cac1 163b d0b6 683c 8bf8 153c 5a51 0bbd
00000080: 7e14 2abb d586 243c 4f78 bdba 628b f93c
00000090: 902d 02bd b054 46bc 35d8 64bc ed8d d9bc
000000a0: 1855 19bc 68a0 0bbd a45d 613c 3118 65bc
000000b0: acfc 49bc 772d 6cbd a04f acbc 34f1 75bc
000000c0: 31b6 34bd 62ac 6f3b 25ac 6cbc 5b18 a5bc
000000d0: 1a96 dbbc 7918 34bd 9886 0abc 560c 6e3a
000000e0: 41fd 9a3c b824 24bd 57c1 bfbb ea0d babc
000000f0: b1b0 a03b e295 eeba c3a0 68bc 80f7 1a3d
00000100: 5621 8c3a 34be b13c ea54 8fbd a5d2 30bd
00000110: 3c59 833c 2d38 0dbc 7a91 af3c 76cc c83b
00000120: 97b2 593c 55aa 903b 6c1f adbb dbdb e8bc
00000130: 03f1 2bbd fbde 07bc a4f4 71bb 8592 a2bc
00000140: 0662 8e3d b06a 963c d421 b3bc 3355 e0bc
00000150: 9d2c 5abb 0746 84bd df87 acbd f7cd 31bd
00000160: e9b6 1f3d de0e 4fbd f4d8 f5bc 88e3 b2bd
00000170: e192 a6bd 4c84 1c3d 8a46 03bd 95d2 b73d
00000180: 81ce 04bd 6b80 aabb 4373 76ba eb5b d6bc
00000190: 4e67 233d 1c2b 4cbd 693b 87bd f86b 99bd
000001a0: c983 72bb 03f2 b13d 6ace dcba 6aab 4b3b
000001b0: 828f cebc e360 adbc ebd4 0b3d 21f8 983b
000001c0: bc75 a03c d4de 45bb f4b8 4bbb 70a8 f6bc
000001d0: 17ce b5bd 60ed cebc b1ca a83c 42fc e3bb
000001e0: d62d 2b3d 646b 9abd 12dc af3c ebef 64bb
000001f0: a61d 243c a728 563d 1458 e5ba 7508 50bd
00000200: cfbc b1bc b4bf cdbc 5d24 2abd d8be 1dbd
00000210: d837 e73c 4260 98bc 39fb 16bd d9d3 10bd
00000220: 42bc 73ba 3ee0 4abd 15d1 563c 0f4d 523c
00000230: e436 8bbc e807 383b a167 44bc c1cd d63c
00000240: c579 233d 7ff8 9f3c ceb2 493d 5139 e23b
00000250: aecf d73c 8eae 753d ae78 7bbc 34b0 b3bc
00000260: 4391 f93c e70d 7e3c 2bec 483c 8a78 143d
00000270: 0de2 6cbc a306 cd3a cc14 1f3b c915 54bc
00000280: f36f 91bc 78f8 19bd f375 0a3d b26c 693c
00000290: 7241 96bc 2d74 843c 1f8e 46bc 58a7 f6bb
000002a0: 8d8e c9bc ae0f cd3c 4db1 d53c c11f 4bbc
000002b0: c44e 23bc 1038 15bb f47f 093d 5db1 8cbc
000002c0: 9709 343d e065 c8bc 0853 113d d991 443b
000002d0: 48a6 62bd d9a9 39bc 59c8 623d f655 0fbd
000002e0: 6c9e eabc 6643 553b 5fbf 2cbc a6e4 073d
000002f0: c111 2d3d 1d82 f53c cd0a 143c 222e 9abc
00000300: 7007 69bd b35e fcbc 1dd7 04bd 79de e1b9
00000310: 4ecc 80ba c510 78bc 375d 0cbd 132c 0c39
00000320: 1dda ae3c 5fff 943c b04a 0c3d f949 183d
00000330: 9dbc 6c39 b149 0bbc 4f80 413c 4280 3ebc
00000340: 9698 b4bc 55d4 3dbc eabf 593c 7b6e 5fbc
00000350: fcbb eebc 76b5 88bc 0372 b4bc 9d21 9f3c
00000360: 37ba 2bbd 1093 ae3c 4a85 a3bb 1dd4 8abd
00000370: 8f8e 393d 7d24 c43c e5cb 833c 604d 48bd
00000380: 5416 0cbd 06b9 0c3e 673a 35bc ba92 9ebd
00000390: 7ddc 1ebc 0bd2 1c3d 7941 b23d c5e3 f33c
000003a0: f254 b13d 2045 d1bc 74c9 293d 6132 ee3b
000003b0: 0036 14bd ed3e 923d a855 063d da5d 4b3c
000003c0: caf2 c5bc 6868 03bd d50b c0bc 17af ad3c
000003d0: c30e ec3c 33ef 33bd 9b4f 823c 2f33 933d
000003e0: eec6 4c3c 1465 643c f87a 383d af37 a9bc
000003f0: f7a5 053d 17a0 0abd 604c 76bd b6db f2bc

bias f4 [64]
-0.11901051 -0.075471394 -0.02946431 -0.1371648 -0.09855558 -0.0336978 -0.038221452 -0.14408782
-0.16140114 -0.08855964 -0.13557872 -0.035000224 -0.05080073 -0.06420801 -0.10131329 -0.05604867
0.008774336 -0.053850096 -0.05394424 -0.10345768 -0.04361435 0.023449255 -0.059890006 -0.18663953
-0.17522657 0.00239091 -0.050607376 -0.08055525 -0.07320732 -0.014172217 -0.054428 -0.117261074
-0.06609972 -0.029269887 -0.079864666 0.0059383335 -0.05366971 -0.036409557 -0.1123111 -0.11837359
-0.09445978 -0.024447503 -0.07114387 -0.092489846 -0.04679465 -0.013449302 -0.023692599 -0.10595315
-0.040330578 -0.06792521 -0.043364998 -0.05742359 -0.14336054 -0.017710634 -0.056970496 -0.028449954
-0.046069976 -0.053391602 -0.08827879 -0.058295574 -0.0095832795 -0.06188818 -0.037041955 -0.11324571
00000000: c8bb f3bd bf90 9abd 235f f1bc ee74 0cbe
00000010: 82d7 c9bd b406 0abd 198e 1cbd c28b 13be
00000020: 5746 25be c25e b5bd 26d5 0abe 655c 0fbd
00000030: 6d14 50bd 7d7f 83bd 587d cfbd 4a93 65bd
00000040: 3cc2 0f3c eb91 5cbd a3f4 5cbd 9fe1 d3bd
00000050: f6a4 32bd a718 c03c 394f 75bd 6f1e 3fbe
00000060: 986e 33be d0b0 1c3b ae49 4fbd 27fa a4bd
00000070: b8ed 95bd 9632 68bc e5ef 5ebd 9326 f0bd
00000080: 4a5f 87bd 67c7 efbc 1690 a3bd 5a96 c23b
00000090: c5d4 5bbd 3022 15bd 5d03 e6bd da6d f2bd
000000a0: 2174 c1bd 2146 c8bc e1b3 91bd 516b bdbd
000000b0: bfab 3fbd 765a 5cbc fb16 c2bc f7fd d8bd
000000c0: ad31 25bd 5f1c 8bbd 7f9f 31bd 0035 6bbd
000000d0: 1bcd 12be e415 91bc e559 69bd e10f e9bc
000000e0: dfb3 3cbd 27b1 5abd 83cb b4bd 57c7 6ebd
000000f0: 3003 1dbc 767e 7dbd 4eb9 17bd 5eed e7bd

weight f4 [64, 1024]
-0.057404637 0.01267788 -0.029760044 -0.0051453505 0.0036118936 0.04254389 0.0061678477 0.0485591
0.022166463 0.01869897 0.038328152 0.02426936 0.029290382 0.03470196 -0.010799429 -0.030985544
-0.042758103 0.013196671 -0.0055553885 0.017946487 0.010734369 -0.00487381 -0.00592912 -0.0038903651
0.025064591 0.01706596 0.017815428 0.02524624 0.041492593 0.07238683 0.066257104 0.043331955
-0.013077495 0.021556178 -0.012702777 0.017263513 0.0033376098 0.027417239 -0.0015464709 -0.042462956
-0.037865456 0.033873618 -0.0076547177 -0.045790385 0.034362707 0.00010567324 0.02524689 0.009599192
0.013836236 0.021597533 0.0053913766 0.0017772825 0.0007974319 -0.05318075 0.0007405487 -0.06348814
0.03872223 -0.040354874 0.0132120075 -0.04534415 -0.029770344 -0.048370697 -0.015025627 -0.022215413
0.046235584 0.021753311 0.006735526 -0.0122609055 0.0046393415 0.01373071 -0.054042142 -0.03520169
0.018357156 0.029067183 0.010529092 -0.020182084 0.07329032 0.035113256 0.04951388 -0.01458225
0.021770641 0.034257542 0.04897769 -0.0043876395 0.004269118 0.009428462 -0.0030672415 -0.05389456
-0.029283233 -0.04927832 -0.028545886 -0.04639432 0.0125707695 -0.010135977 0.011073766 0.011344428
0.036376223 -0.010639254 0.00993331 0.057751756 0.039820082 -0.045862343 -0.0155237755 -0.020192478
0.031088164 0.0070218644 0.025093682 -0.009808495 -0.022337867 -0.010581374 -0.008682671 -0.076662354
0.051290687 0.06605385 0.01053255 -0.030664757 0.032282773 -0.016110828 0.0011198112 -0.0005234447
0.07816861 0.049792707 -0.035481144 0.0006990026 0.031667057 0.03715113 0.016085453 -0.015805643
0.02399882 0.030998461 -0.004273455 0.019527957 0.045500908 0.019854844 0.0367264 -0.024859425
-0.07905719 0.023210762 0.04054601 -0.035771035 0.009506387 -0.019888934 -0.019141078 -0.04582517
0.011749669 -0.043149065 -0.023669476 -0.010498786 0.0007879029 -0.031064758 -0.079403125 -0.04017836
-0.00022433685 -0.0115700485 0.04928769 -0.009101591 0.03775614 0.03164471 0.02717359 -0.017822023
-0.0013347177 -0.041178 -0.015801935 -0.017436555 0.06479232 -0.00805087 -0.020210693 -0.037311368
-0.02861921 -0.02119383 0.0030897667 0.027788818 0.027558856 0.0010948097 0.055168197 0.061799217
-0.006316942 -0.008003352 0.03537807 -0.021965446 0.08777751 0.011667634 -0.04555769 -0.031101469
0.041682426 0.033052597 0.0026422415 -0.009453732 -0.0061813765 -0.0071868706 -0.01622596 0.03134701
0.025549924 -0.050583165 0.048362914 0.034491792 0.01536921 -0.048373297 0.0154724 0.05736893
0.02885752 0.017394012 -0.055943128 -0.042201508 -0.0488083 -0.0064404616 -0.016623348 -0.010648123
0.03626911 0.0008185298 -0.0028303212 -0.018954808 0.011026247 0.011846408 0.02844678 0.04730326
-0.02791526 -0.0008967934 0.022682087 0.071458034 -0.023490464 -0.04453872 -0.03974682 0.056767434
-0.03862005 -0.032846026 -0.03731114 0.03765586 -0.050029438 -0.04131876 0.016756978 0.006756267
0.06776307 0.022312513 0.015481945 0.071402125 0.020552369 -0.025425674 -0.017538117 0.020388806
-0.0957944 -0.020703703 0.007390173 -0.03330663 -0.017262463 -0.039687026 -0.050492637 -0.04550202
0.040605873 0.012057161 -0.021916179 -0.0044358177 -0.037637617 -0.017851913 -0.010497256 0.029156506
00000000: 2021 6bbd e2b6 4f3c 56cb f3bc 549a a8bb
00000010: 85b5 6c3b 8142 2e3d a81b ca3b e8e5 463d
00000020: 7196 b53c 952e 993c fbfd 1c3d 89d0 c63c
00000030: 62f2 ef3c a423 0e3d 17f0 30bc 65d5 fdbc
00000040: 1f23 2fbd da36 583c fa09 b6bb 8304 933c
00000050: 35df 2f3c 7bb4 9fbb 1049 c2bb 7ff5 7ebb
00000060: 4254 cd3c eacd 8b3c a9f1 913c 34d1 ce3c
00000070: 23f4 293d 8c3f 943d ceb1 873d d97c 313d
00000080: fd42 56bc 9596 b03c 4f1f 50bc 366c 8d3c
00000090: cdbb 5a3b 1e9a e03c f4b2 caba a3ed 2dbd
000000a0: cf18 1bbd 10bf 0a3d 6dd4 fabb b38e 3bbd
000000b0: e9bf 0c3d e49c dd38 91d2 ce3c ee45 1d3c
000000c0: 61b1 623c 4fed b03c 25aa b03b b4f3 e83a
000000d0: c00a 513a 0fd4 59bd 6221 423a 1206 82bd
000000e0: 339b 1e3d 274b 25bd 2d77 583c caba 39bd
000000f0: f0e0 f3bc 5a20 46bd 0c2e 76bc 19fd b5bc
00000100: 8661 3d3d 0034 b23c b0b5 dc3b f7e1 48bc
00000110: 9e05 983b c6f6 603c 4b5b 5dbd a62f 10bd
00000120: bf61 963c 4d1e ee3c 3682 2c3c e654 a5bc
00000130: 3c19 963d ebd2 0f3d 11cf 4a3d 64ea 6ebc
00000140: 5858 b23c a351 0c3d d59c 483d 30c6 8fbb
00000150: f5e3 8b3b d679 1a3c c603 49bb 8bc0 5cbd
00000160: 64e3 efbc 10d8 49bd 10d9 e9bc f807 3ebd
00000170: a1f5 4d3c 5e11 26bc be6e 353c fbdd 393c
00000180: 3cff 143d 4450 2ebc 52bf 223c 1b8d 6c3d
00000190: 621a 233d 27da 3bbd 6f57 7ebc b26a a5bc
000001a0: 9bac fe3c ab17 e63b 4491 cd3c cfb3 20bc
000001b0: e7fd b6bc 805d 2dbc c341 0ebc 2701 9dbd
000001c0: 2f16 523d 3e47 873d b790 2c3c a834 fbbc
000001d0: f13a 043d dbfa 83bc a1c6 923a c737 09ba
000001e0: dd16 a03d 70f3 4b3d ad54 11bd 453d 373a
000001f0: 51b5 013d c92b 183d a4c5 833c d67a 81bc
00000200: 2c99 c43c 7cf0 fd3c 5708 8cbb 18f9 9f3c
00000210: 295f 3a3d a0a6 a23c 6c6e 163d fea5 cbbc
00000220: bce8 a1bd 7f24 be3c 9313 263d a684 12bd
00000230: adc0 1b3c 1eee a2bc c0cd 9cbc 2cb3 3bbd
00000240: af81 403c 13bd 30bd 7de6 c1bc 1a03 2cbc
00000250: 458b 4e3a 857b febc 1b9e a2bd 1092 24bd
00000260: f73b 6bb9 4d90 3dbc e4e1 493d d71e 15bc
00000270: 2fa6 1a3d e29d 013d 269b de3c 7eff 91bc
00000280: b2f1 aeba 43aa 28bd 0f73 81bc 1bd7 8ebc
00000290: d6b1 843d cce7 03bc e590 a5bc ced3 18bd
000002a0: d572 eabc af9e adbc af7d 4a3b 60a5 e33c
000002b0: 1cc3 e13c b87f 8f3a 0cf8 613d 2d21 7d3d
000002c0: 5afe cebb 7e20 03bc 98e8 103d e1f0 b3bc
000002d0: b2c4 b33d 9b29 3f3c b39a 3abd 82c8 febc
000002e0: 31bb 2a3d 2962 073d 7529 2d3b d3e3 1abc
000002f0: 258d cabb d77f ebbb 4eec 84bc b965 003d
00000300: 134e d13c 4b30 4fbd 3118 463d 4447 0d3d
00000310: 24cf 7b3c 1423 46bd f37f 7d3c affb 6a3d
00000320: 9b66 ec3c e37d 8e3c 9f24 65bd 7ddb 2cbd
00000330: 36eb 47bd 820a d3bb b02d 88bc 7775 2ebc
00000340: eb8e 143d 9b92 563a e97c 39bb 1d47 9bbc
00000350: 6fa7 343c 7017 423c 3909 e93c 10c1 413d
00000360: 8bae e4bc c916 6bba c9cf b93c 9758 923d
00000370: 136f c0bc 3c6e 36bd 90cd 22bd f884 683d
00000380: 0f30 1ebd 8e89 06bd 91d3 18bd 083d 1a3d
00000390: abeb 4cbd dc3d 29bd ee45 893c ad63 dd3b
000003a0: 5dc7 8a3d bbc8 b63c fca7 7d3c 473b 923d
000003b0: 715d a83c 8149 d0bc 19ac 8fbc 6d06 a73c
000003c0: db2f c4bd d09a a9bc 4429 f23b 886c 08bd
000003d0: 026a 8dbc dd8e 22bd 5ed1 4ebd 5360 3abd
000003e0: 5852 263d 668b 453c 8f89 b3bc 565a 91bb
000003f0: e729 1abd 2d3e 92bc affc 2bbc a0d9 ee3c

bias f4 [64]
-0.003482853 -0.0041629053 -0.012988766 -0.049010362 0.042984646 0.050556343 0.03501788 0.03299267
0.038099673 -0.0067121065 0.006719286 0.035691988 -0.011979351 -0.022426793 -0.00895686 0.009043395
0.0041150935 0.008205524 -0.010653102 0.009002462 -0.07740598 0.071893364 -0.0036339741 -0.013495
-0.02276818 0.008692088 -0.018204192 -0.0632349 0.018686578 -0.033960547 0.0047888034 0.03638439
-0.11053771 0.016153406 0.019408658 -0.01260672 0.06517987 0.019554429 -0.023614401 0.016810702
-0.06170221 0.042921163 0.0034409228 0.0203035 -0.02889056 -0.008497027 0.0043249647 0.025525395
-0.021220233 -0.026192572 -0.062130533 0.021920234 -0.04499203 -0.0023353952 -0.030547017 0.05144001
0.08406597 0.053406607 -0.03421765 -0.016977776 -0.0029394608 -0.010330599 0.017160157 -0.016668724
00000000: 9440 64bb fb68 88bb d5ce 54bc 17bf 48bd
00000010: ab10 303d 2b14 4f3d e96e 0f3d 5223 073d
00000020: 670e 1c3d 3bf1 dbbb 752d dc3b c331 123d
00000030: 0a45 44bc 65b8 b7bc cbbf 12bc bf2a 143c
00000040: e8d7 863b 7670 063c 598a 2ebc 107f 133c
00000050: 0787 9ebd d43c 933d f827 6ebb 221a 5dbc
00000060: 5684 babc 4269 0e3c f520 95bc 4d81 81bd
00000070: 9814 993c 371a 0bbd 65eb 9c3b cc07 153d
00000080: 9861 e2bd 2654 843c e8fe 9e3c 6b8c 4ebc
00000090: 067d 853d 9c30 a03c fd72 c1bc 99b6 893c
000000a0: 75bb 7cbd 1ace 2f3d 1b81 613b 8753 a63c
000000b0: e5ab ecbc 1d37 0bbc 6fb8 8d3b a21a d13c
000000c0: 0ed6 adbc ce91 d6bc 967c 7ebd 1092 b33c
000000d0: 9049 38bd 6e0d 19bb bd3d fabc c3b2 523d
000000e0: c72a ac3d e3c0 5a3d ce27 0cbd fa14 8bbc
000000f0: f8a3 40bb ac41 29bc 7593 8c3c d98c 88bc

weight f4 [10, 64]
-0.3661572 -0.25456762 -0.21722764 0.15893605 -0.025646295 -0.17108682 0.19003947 -0.0072624213
0.2302822 -0.094377734 -0.055262957 -0.23070097 0.0123801725 0.11633992 -0.06116889 0.19151801
0.05402855 0.09842023 -0.18089947 -0.109059945 0.22774929 0.04020488 -0.044004656 0.17230329
0.2580496 -0.005672637 -0.031892445 0.19145305 -0.30078253 -0.004680663 -0.15947635 0.04865062
0.37036946 -0.15856214 -0.20811409 0.11758033 -0.16401711 -0.17541991 -0.1362011 0.073605694
0.05826482 0.13500656 0.04913928 -0.09208462 0.15284823 -0.15879518 0.14697985 0.17028864
0.053764436 -0.3692751 0.22033624 0.014212744 0.19004321 -0.13942492 0.12176745 -0.31887925
-0.2149588 0.115241475 -0.026824616 -0.09205051 0.08918736 0.2653046 -0.13533483 0.11699641
0.0039899033 -0.25508484 0.29564282 0.08127077 -0.34836918 -0.3764734 -0.010677911 0.083158076
0.20745857 -0.502818 0.11807174 -0.33586743 -0.051596325 0.2315957 -0.034553286 0.029134529
-0.25080353 0.006201915 0.023927143 0.11560589 -0.08593171 -0.32447737 0.24851441 -0.11070782
0.02609248 -0.05746726 -0.027169187 -0.13486752 0.18047807 0.118566595 0.03408709 0.07107379
0.3328558 -0.008476654 0.41087782 0.14505436 0.23406756 -0.0412458 0.17189647 -0.16583608
-0.058122274 -0.103943534 0.24607542 -0.27245164 -0.10457933 0.06819665 -0.2592378 -0.24699005
-0.036747426 0.25804695 0.17594424 -0.37112933 -0.12799561 0.26072875 0.15985058 -0.12130916
0.073720515 -0.011526626 -0.3401293 0.13751222 0.08238212 -0.023002332 0.21212229 0.057525847
-0.22865072 0.006777894 0.12969714 0.15061565 -0.17469463 0.23121573 -0.020731667 -0.023159785
-0.21473897 0.068310626 -0.23451734 0.0327333 0.19698057 0.27707794 -0.25475606 -0.067574844
0.18424112 -0.07930779 -0.13164435 0.1675576 -0.24486405 0.2625965 -0.20058125 -0.16804145
-0.07424392 -0.14209953 0.20463921 -0.014831493 -0.1216324 -0.20932749 0.044066135 0.028960573
-0.020599639 0.101070985 -0.21289267 0.04995501 -0.13332863 -0.12594928 -0.032945227 -0.028995238
-0.1910324 -0.004310873 -0.007562615 0.26749486 -0.13859786 -0.25358737 0.032968845 0.095866896
-0.15730514 -0.25837606 -0.15061365 0.33186516 0.05674344 0.12548746 0.3035968 -0.13518177
0.23529114 0.3014724 0.29923406 0.21304613 0.13235287 0.15875643 -0.08890115 0.00074844237
0.15620138 0.16099945 -0.00067747507 -0.1441354 0.225179 -0.06447469 -0.0020174314 -0.17457588
-0.0630673 0.15389755 0.11152996 -0.0827434 -0.020204881 -0.04463718 0.14480704 -0.057314336
0.15522034 -0.23398918 0.054890156 0.10598588 -0.08113528 -0.08785709 -0.121914715 0.0074327984
-0.01680441 -0.1336309 0.014972046 -0.14964071 0.073404714 0.11670354 0.065027826 0.18142082
-0.18949202 -0.1971367 -0.006517501 -0.17874277 -0.015349213 -0.15508395 -0.26804736 0.23135531
-0.24178113 0.20586555 -0.21262707 0.0090619605 0.060533833 -0.014903116 -0.031802434 0.122907184
0.26512286 0.2175635 0.1612022 -0.117414154 -0.06575681 0.07330832 0.22929183 -0.040752158
-0.022172421 0.049820587 0.291037 0.16552204 -0.2455134 -0.044189487 0.026448362 -0.1860938
00000000: f578 bbbe b056 82be ec70 5ebe 22c0 223e
00000010: 2e18 d2bc 6231 2fbe b599 423e 9bf9 edbb
00000020: 19cf 6b3e 1d49 c1bd 695b 62bd e03c 6cbe
00000030: 35d6 4a3c a043 ee3d 3b8c 7abd 4c1d 443e
00000040: 0a4d 5d3d 8c90 c93d b63d 39be d25a dfbd
00000050: 1c37 693e dfad 243d 3a3e 34bd 4670 303e
00000060: 141f 843e 87e1 b9bb a7a1 02bd 450c 443e
00000070: 2b00 9abe 3f60 99bb c54d 23be df45 473d
00000080: 11a1 bd3e 1d5e 22be dc1b 55be f5cd f03d
00000090: 1af4 27be 47a1 33be 4d78 0bbe 95be 963d
000000a0: 18a7 6e3d 293f 0a3e 4546 493d dc96 bcbd
000000b0: 3f84 1c3e 349b 22be e381 163e 2560 2e3e
000000c0: 1938 5c3d a011 bdbe d39f 613e 92dc 683c
000000d0: b09a 423e 68c5 0ebe 3661 f93d 2444 a3be
000000e0: 291e 5cbe b903 ec3d 4cbf dbbc fa84 bcbd
000000f0: dda7 b63d 01d6 873e 3795 0abe d09b ef3d
00000100: bcbd 823b 7b9a 82be 7f5e 973e 4a71 a63d
00000110: 725d b2be 1fc1 c0be 68f2 2ebc c84e aa3d
00000120: 0570 543e aeb8 00bf 99cf f13d d1f6 abbe
00000130: ab56 53bd 6c27 6d3e bf87 0dbd 89ab ee3c
00000140: 5269 80be 6f39 cb3b db02 c43c c8c2 ec3d
00000150: f7fc afbd e621 a6be 907a 7e3e c8ba e2bd
00000160: e6bf d53c ca62 6bbd ea91 debc b61a 0abe
00000170: 3ecf 383e 0bd3 f23d e89e 0b3d 238f 913d
00000180: 136c aa3e aae1 0abc 945e d23e 2189 143e
00000190: 68af 6f3e 5bf1 28bd a105 303e efd0 29be
000001a0: 9f11 6ebd 59e0 d4bd 32fb 7b3e c87e 8bbe
000001b0: b02d d6bd afaa 8b3d d1ba 84be f6ea 7cbe
000001c0: 7884 16bd bb1e 843e ba2a 343e aa04 bebe
000001d0: 4811 03be 3d7e 853e dfaf 233e f070 f8bd
000001e0: c8fa 963d 2cda 3cbc 6d25 aebe 01d0 0c3e
000001f0: f5b7 a83d 636f bcbc 9636 593e 39a0 6b3d
00000200: 6a23 6abe 1919 de3b 54cf 043e fd3a 1a3e
00000210: 26e3 32be d1c3 6c3e 75d5 a9bc 97b9 bdbc
00000220: 88e4 5bbe 71e6 8b3d 5025 70be 5a13 063d
00000230: 46b5 493e 29dd 8d3e 636f 82be ae64 8abd
00000240: b4a9 3c3e 1f6c a2bd c7cd 06be 3894 2b3e
00000250: a4bd 7abe 0c73 863e 2c65 4dbe 0f13 2cbe
00000260: 320d 98bd 8a82 11be f18c 513e caff 72bc
00000270: 681a f9bd f259 56be b17e 343d b93e ed3c
00000280: 93c0 a8bc 4efe ce3d 8900 5abe a09d 4c3d
00000290: 4d87 08be d9f8 00be 93f1 06bd 6c87 edbc
000002a0: ff9d 43be 3942 8dbb d0cf f7bb 16f5 883e
000002b0: 99ec 0dbe 34d6 81be 570a 073d dd55 c43d
000002c0: 9914 21be de49 84be 773a 1abe 3bea a93e
000002d0: cf6b 683d c97f 003e 0a71 9b3e 176d 0abe
000002e0: 29f0 703e 975a 9a3e 3535 993e c428 5a3e
000002f0: 8387 073e 0c91 223e ce11 b6bd 1e33 443a
00000300: 41f3 1f3e 0add 243e 9598 31ba 3b98 13be
00000310: 5395 663e 4e0b 84bd e236 04bb 05c4 32be
00000320: 6e29 81bd 5297 1d3e d269 e43d 5f75 a9bd
00000330: b584 a5bc 7ad5 36bd 4c48 143e 70c2 6abd
00000340: 15f2 1e3e dc9a 6fbe 80d4 603d 200f d93d
00000350: 412a a6bd 6bee b3bd 6cae f9bd d58e f33b
00000360: 67a9 89bc 8ad6 08be 504d 753c 6a3b 19be
00000370: 3655 963d 4402 ef3d 4f2d 853d 61c6 393e
00000380: 320a 42be 34de 49be c390 d5bb 5808 37be
00000390: 447b 7bbc 54ce 1ebe 813d 89be 68e8 6c3e
000003a0: 7995 77be 6bce 523e e9ba 59be 9e78 143c
000003b0: 53f2 773d 332c 74bc 4543 02bd c3b6 fb3d
000003c0: 2fbe 873e f7c8 5e3e 3112 253e d576 f0bd
000003d0: 82ab 86bd ac22 963d 7acb 6a3e bceb 26bd
000003e0: f0a2 b5bc ac10 4c3d cd02 953e 9c7e 293e
000003f0: dd67 7bbe 0900 35bd 3caa d83c 608f 3ebe

bias f4 [10]
-0.06281866 0.04373807 0.0033371896 -0.02746978 0.15326403 -0.06729312 0.19058341 -0.11460626
-0.042289004 -0.12591068
00000000: 12a7 80bd b126 333d c0b4 5a3b 4e08 e1bc
00000010: 3ff1 1c3e fad0 89bd 4c28 433e b0b6 eabd
00000020: 3c37 2dbd bbee 00be
